Model: "model"
________________________________________________________________________________
 Layer (type)                       Output Shape                    Param #     
================================================================================
 input_1 (InputLayer)               [(None, 128, 128, 3)]           0           
                                                                                
 conv2d (Conv2D)                    (None, 128, 128, 64)            9472        
                                                                                
 max_pooling2d (MaxPooling2D)       (None, 64, 64, 64)              0           
                                                                                
 conv2d_1 (Conv2D)                  (None, 64, 64, 128)             73856       
                                                                                
 conv2d_2 (Conv2D)                  (None, 64, 64, 128)             147584      
                                                                                
 max_pooling2d_1 (MaxPooling2D)     (None, 32, 32, 128)             0           
                                                                                
 conv2d_3 (Conv2D)                  (None, 32, 32, 256)             295168      
                                                                                
 conv2d_4 (Conv2D)                  (None, 32, 32, 256)             590080      
                                                                                
 average_pooling2d (AveragePooling2  (None, 16, 16, 256)            0           
 D)                                                                             
                                                                                
 flatten (Flatten)                  (None, 65536)                   0           
                                                                                
 dropout (Dropout)                  (None, 65536)                   0           
                                                                                
 dense (Dense)                      (None, 8)                       524296      
                                                                                
================================================================================
Total params: 1,640,456
Trainable params: 1,640,456
Non-trainable params: 0
________________________________________________________________________________
test_loss: 2.0697014331817627
test_accuracy: 0.14622056484222412
performan
…
